…
[1.952724, "o", " "]
[3.396487, "o", "t"]
[3.471535, "o", "r"]
[3.578624, "o", "aining/"]
[4.648466, "o", "s"]
[4.70764, "o", "r"]
[4.803433, "o", "c/"]
[5.174373, "o", "t"]
[5.337983, "o", "r"]
[5.394349, "o", "ain.py "]
[6.058573, "o", "\r\n"]
[6.058677, "o", "\u001b[?2004l\r"]
[7.963316, "o", "==========================================================================================\r\nLayer (type:depth-idx)                   Output Shape              Param #\r\n==========================================================================================\r\nNeuralNet                                [1, 100, 12]              --\r\n├─Sequential: 1-1                        [1, 100, 12]              --\r\n│    └─GRU: 2-1                          [1, 100, 32]              5,760\r\n│    └─SelectItem: 2-2                   [1, 100, 32]              --\r\n│    └─Linear: 2-3                       [1, 100, 12]              396\r\n==========================================================================================\r\nTotal params: 6,156\r\nTrainable params: 6,156\r\nNon-trainable params: 0\r\nTotal mult-adds (Units.MEGABYTES): 0.58\r\n==========================================================================================\r\nInput size (MB): 0.01\r\nForward/backward pass size (MB): 0.04\r\nParams size (MB): 0.02\r\nE"]
…
