…
[2.536693, "o", "t"]
[2.691668, "o", "r"]
[2.78866, "o", "a"]
[2.963407, "o", "ining/"]
[4.104338, "o", "s"]
[4.129592, "o", "r"]
[4.254383, "o", "c/"]
[4.825164, "o", "t"]
[4.997607, "o", "r"]
[5.039984, "o", "ain.py "]
[5.638028, "o", "\r\n"]
[5.638068, "o", "\u001b[?2004l\r"]
[7.782901, "o", "==========================================================================================\r\nLayer (type:depth-idx)                   Output Shape              Param #\r\n==========================================================================================\r\nNeuralNet                                [1, 100, 12]              --\r\n├─Sequential: 1-1                        [1, 100, 12]              --\r\n│    └─GRU: 2-1                          [1, 100, 32]              5,760\r\n│    └─SelectItem: 2-2                   [1, 100, 32]              --\r\n│    └─Linear: 2-3                       [1, 100, 12]              396\r\n==========================================================================================\r\nTotal params: 6,156\r\nTrainable params: 6,156\r\nNon-trainable params: 0\r\nTotal mult-adds (Units.MEGABYTES): 0.58\r\n==========================================================================================\r\nInput size (MB): 0.01\r\nForward/backward pass size (MB): 0.04\r\nParams size (MB): 0.02\r\nE"]
…
