…
[3.232545, "o", "a"]
[3.330334, "o", "i"]
[3.388015, "o", "n"]
[3.588334, "o", "ing/"]
[4.577954, "o", "s"]
[4.577993, "o", "r"]
[4.582226, "o", "c/"]
[5.052094, "o", "t"]
[5.052251, "o", "r"]
[5.090579, "o", "ain.py "]
[5.871186, "o", "\r\n"]
[5.871342, "o", "\u001b[?2004l\r"]
[7.775906, "o", "==========================================================================================\r\nLayer (type:depth-idx)                   Output Shape              Param #\r\n==========================================================================================\r\nNeuralNet                                [1, 100, 12]              --\r\n├─Sequential: 1-1                        [1, 100, 12]              --\r\n│    └─GRU: 2-1                          [1, 100, 32]              5,760\r\n│    └─SelectItem: 2-2                   [1, 100, 32]              --\r\n│    └─Linear: 2-3                       [1, 100, 12]              396\r\n==========================================================================================\r\nTotal params: 6,156\r\nTrainable params: 6,156\r\nNon-trainable params: 0\r\nTotal mult-adds (Units.MEGABYTES): 0.58\r\n==========================================================================================\r\nInput size (MB): 0.01\r\nForward/backward pass size (MB): 0.04\r\nParams size (MB): 0.02\r\nE"]
…
